best_model.pth (torch, 511266 bytes, 25 tensors)

model.0.weight f4 [256, 60]
0	0x3e6640bb	0.2248563
1	0x3f445020	0.7668476
2	0xbdc529b5	-0.096270956
3	0x3d67ad70	0.056561887
4	0x3e30bdaf	0.17259859
5	0x3c21fcae	0.009886904
6	0xbc38c816	-0.011278173
7	0x3cd2ce34	0.025733091
8	0x3c3efe80	0.011657357
9	0x3e2443ba	0.1604146
10	0xbd97a11b	-0.07403775
11	0x3ca3f268	0.02001305
12	0x3d6c83ce	0.057742886
13	0xbdeb76bd	-0.11497257
14	0xbd67870a	-0.056525268
15	0xbc6537f2	-0.013990389
16	0xbd5b4303	-0.053530704
17	0xbd9b85c2	-0.07593872
18	0xbded9c78	-0.1160211
19	0xbe03ae5b	-0.1285948
20	0xbdfe26e9	-0.12409765
21	0xbdab5f94	-0.083678395
22	0xbd5b0f25	-0.05348124
23	0xbe1b3a08	-0.15158856
24	0xbd847316	-0.064672634
25	0xbda4e3ce	-0.08051263
26	0xbd57aa69	-0.05265275
27	0x3c2c7c28	0.010527648
28	0x3ddeb452	0.10874237
29	0x3dafa119	0.08575649
30	0xbce452dd	-0.027871544
31	0x3d5dfebc	0.05419801
32	0x3e0341e5	0.12818106
33	0xbe00814e	-0.12549326
34	0x3d29fe1d	0.041502107
35	0xbd84319a	-0.06454773
36	0x3d9a45c8	0.07532841
37	0x3d84daf0	0.064870715
38	0x3e13ca90	0.1443274
39	0x3db0d5e8	0.086345494
40	0xbd675b49	-0.05648354
41	0x3d3362d1	0.04379541
42	0x3d90e06b	0.07074054
43	0x3a680a33	0.00088516175
44	0x3d95f51e	0.07322143
45	0xbd4a54ea	-0.049397387
46	0x3d7122a6	0.058870934
47	0xbd3b9c0e	-0.045803122
48	0xbc81649c	-0.015795045
49	0xbdc35b23	-0.09538867
50	0xbcda96a5	-0.026683161
51	0x3d66dc30	0.05636233
52	0x3dd0a4e5	0.10187701
53	0xbe260edf	-0.1621661
54	0x3db2fbfa	0.08739467
55	0xbd8869e1	-0.0666082
56	0x3d98ff29	0.07470543
57	0x3db6ad18	0.08919734
58	0x3d102fc2	0.035201795
59	0xba9771e2	-0.0011554325
60	0x3f278344	0.6543467
61	0x3e786b51	0.24259688
62	0xbdbd8a45	-0.092548884
63	0x3d4444d9	0.04791722
64	0xbc5a2d60	-0.013316482
65	0x3d193942	0.03740812
66	0xbc9c02bf	-0.019044278
67	0x3d4a1d60	0.04934442
68	0xbcf4d5fd	-0.029887194
69	0x3d4eb82c	0.05046861
70	0x3cfe34d0	0.031031042
71	0x3d3b5abf	0.04574084
72	0x3dae85ab	0.08521589
73	0xbdb34533	-0.08753433
74	0xbd15e2dd	-0.036593307
75	0x3c5cbddd	0.013473001
76	0x3ba40bf8	0.0050063096
77	0x3c1ef151	0.009701089
78	0xbcf1fa93	-0.029538428
79	0xbddec720	-0.10877824
80	0x3c68f6b3	0.014218974
81	0x3d577e5a	0.052610733
82	0xbd44241f	-0.04788601
83	0xbd887642	-0.06663181
84	0x3ba79fc3	0.0051154806
85	0xbc8dc14b	-0.017304083
86	0xbcacdf6a	-0.021102626
87	0xbda8b969	-0.08238489
88	0x3dc070e3	0.093965314
89	0x3e23b411	0.15986659
90	0xbe6aa7a1	-0.22915508
91	0x3d22b013	0.0397187
92	0x3db22e8f	0.087002866
93	0xbd72bfbf	-0.059264895
94	0x3d71c094	0.059021547
95	0xbe1b8db8	-0.1519078
96	0x3d56bfcc	0.052429006
97	0x3cc46c7c	0.02397751
98	0xbd11bf3d	-0.03558277
99	0xbd075a78	-0.033045262
100	0x3dc60937	0.09669726
101	0xbe0da394	-0.13831931
102	0x3dbab735	0.09116975
103	0x3e263b6d	0.16233607
104	0xbd2ebaea	-0.042658724
105	0xbe3fe71f	-0.1874051
106	0x3d1565d0	0.03647405
107	0x3e03e9c7	0.12882148
108	0xbde4308f	-0.11142074
109	0x3e307d7c	0.17235368
110	0x3cca5be6	0.024702024
111	0xbddc6f39	-0.107634015
112	0xbe1a94dc	-0.15095848
113	0xbd88fe9b	-0.06689187
114	0xbd746331	-0.05966491
115	0x3dd4f5d0	0.103984475
116	0x3d99d3c3	0.075110935
117	0xbdb87d62	-0.0900829
118	0xbd6e816e	-0.058228903
119	0xbc242ab1	-0.010019944
120	0x3dcf2faf	0.10116517
121	0x3e0f6cc9	0.14006342
122	0x3df814b3	0.12113323
123	0xbd8ffced	-0.07030664
124	0x3e0e62c2	0.1390486
125	0xbdb7185a	-0.089401916
126	0xbd3f5ebf	-0.046721216
127	0x3e2d75cf	0.16939472
128	0x3e35c06e	0.17749187
129	0xbdbc2933	-0.091875456
130	0x3d3cfd4b	0.046139996
131	0xbdefea83	-0.117146514
132	0x3e45d8dc	0.19321007
133	0x3e2a7a9d	0.16648336
134	0x3e87b6f4	0.2650677
135	0x3de73f46	0.11291365
136	0x3e043cc1	0.12913801
137	0xbe83818d	-0.25684777
138	0xbe4eb72e	-0.20187065
139	0x3e5fee99	0.21868362
140	0x3df961dc	0.12176868
141	0xbe198435	-0.14991839
142	0x3dfe7d33	0.124262236
143	0x3e1348c6	0.1438323
144	0xbd436513	-0.047703814
145	0x3c7fe751	0.015619115
146	0x3ce6df09	0.028182523
147	0xbda3bb49	-0.07994706
148	0x3cc67c97	0.024229331
149	0xbc6d9f91	-0.014503376
150	0x3d33a259	0.043856
151	0xbdb7d4cd	-0.089761354
152	0xbda51ea7	-0.08062487
153	0x3c17b873	0.009260285
154	0x3cad04ae	0.021120396
155	0x3d8c37e8	0.06846601
156	0x3d852c09	0.0650254
157	0x3dc9e200	0.09857559
158	0x3d040e62	0.03224028
159	0xbdaa7489	-0.083230086
160	0xbdebd282	-0.115147606
161	0x3cdd6faa	0.027030785
162	0x3a1c27a8	0.0005956837
163	0x3cbc7537	0.023005111
164	0xbd09fe4a	-0.033689775
165	0xbd2bd7fc	-0.041954026
166	0xbd23d39f	-0.03999674
167	0x3d7aaffd	0.06120299
168	0xbcb0b574	-0.021570899
169	0x3a9e5d15	0.0012082184
170	0xbccf5538	-0.02530919
171	0x3c32ff7e	0.010925172
172	0x3e169dde	0.14708659
173	0x3d303bcd	0.04302578
174	0xbb7d8a5d	-0.0038687207
175	0xbdadcde5	-0.08486537
176	0x3da5a617	0.0808832
177	0xbdac47bf	-0.08412122
178	0x3d9a01e1	0.075198896
179	0x3ca64cc6	0.02030028
180	0x3d9535c2	0.07285644
181	0xbe9d3732	-0.30706173
182	0x3df588af	0.11988961
183	0x3de81412	0.11331953
184	0xbca84e02	-0.02054501
185	0x3da0c387	0.07849794
186	0x3de0a517	0.109689884
187	0x3c96cd32	0.018408392
188	0x3d138561	0.036015872
189	0xbe7a3365	-0.24433668
190	0xbd6476d4	-0.055777386
191	0xbdc277b1	-0.094954856
192	0xbd92ac42	-0.07161762
193	0xbd8388b0	-0.064225554
194	0xbd733b2a	-0.059382595
195	0xbdcfda30	-0.10149038
196	0x3d89e03e	0.06732224
197	0xbe5fbef4	-0.21850187
198	0xbe4bd2ee	-0.19904682
199	0x3df9741c	0.12180349
200	0x3d8486f8	0.06471056
201	0x3daff86f	0.08592307
202	0x3d88438a	0.06653507
203	0xbdb5fb1d	-0.08885787
204	0x3e1e1c82	0.15440562
205	0x3e04e5a7	0.1297823
206	0xbe04e63c	-0.12978452
207	0xbdec40c5	-0.11535791
208	0xbd3ddcf5	-0.0463533
209	0x3ce28205	0.027649889
210	0xbcd2a98f	-0.025715617
211	0x3d79fbfb	0.061031323
212	0xbc131171	-0.008976326
213	0x3d2316e4	0.039816752
214	0x3dc80e7e	0.09768389
215	0xbe434bb2	-0.19071844
216	0x3d617e37	0.05505201
217	0xbe55276d	-0.20815821
218	0xbd792119	-0.06082258
219	0xbdb211d5	-0.086948074
220	0x3d99d6e6	0.07511692
221	0xbd2f8ced	-0.042859007
222	0xbd813120	-0.06308198
223	0x3d074817	0.033027735
224	0x3d010c2a	0.03150574
225	0x3d55248a	0.0520368
226	0xbd08a79d	-0.033362973
227	0xbc9bca8d	-0.019017482
228	0x3dcac2b6	0.099004194
229	0x3905f84d	0.00012776368
230	0xbe5650d0	-0.20929265
231	0xbd01a9e9	-0.03165618
232	0xbdeeceaf	-0.116605155
233	0xbcf1dae5	-0.029523322
234	0x3cb4d7b6	0.022075515
235	0xbdd623ff	-0.104560845
236	0x3e24e310	0.16102242
237	0x3d7e8167	0.062135126
238	0xbd12e335	-0.035861213
239	0x3d410228	0.047121197
240	0xbd520cb5	-0.05128165
241	0x3ba44baa	0.0050139027
242	0xbdc84055	-0.09777895
243	0x3eb95a34	0.36201632
244	0x3d9688f5	0.07350341
245	0xbde4d8dd	-0.11174176
246	0xbc74b011	-0.014934556
247	0xbc5cb670	-0.013471231
248	0xbe231a0a	-0.15927902
249	0x3d1247da	0.035713054
250	0x3d9c5693	0.076337
251	0xbe880d0e	-0.2657246
252	0xbe8e89f4	-0.27839625
253	0xbe9e5398	-0.30923152
254	0xbe10c891	-0.1413901
255	0xbdbd9780	-0.09257412

model.0.bias f4 [256]
0	0x381215a9	3.4829285e-05
1	0x373a3dd6	1.1100861e-05
2	0xb74885d8	-1.1952092e-05
3	0x36533511	3.1472339e-06
4	0xb76af073	-1.4003471e-05
5	0xb62ce9c8	-2.5766076e-06
6	0x36b688ac	5.4399334e-06
7	0xb6e3b3b8	-6.786049e-06
8	0x37047b72	7.896555e-06
9	0xb7e919af	-2.7787724e-05
10	0xb7a200d8	-1.9312298e-05
11	0x378448d5	1.5769541e-05
12	0x36a9716e	5.0497974e-06
13	0xb80bfd2e	-3.3375974e-05
14	0xb70ca8cd	-8.383952e-06
15	0x361c6e91	2.331017e-06
16	0x37046d6c	7.89329e-06
17	0xb75a8170	-1.302395e-05
18	0x374d72b4	1.2245659e-05
19	0x379b1ef8	1.849186e-05
20	0xb7b0c6f1	-2.1073474e-05
21	0xb70ddb21	-8.455275e-06
22	0x36d1db42	6.2542103e-06
23	0x3767e8e2	1.3822895e-05
24	0x357e45d5	9.472399e-07
25	0x373996c4	1.1061962e-05
26	0x36c7d0ac	5.9549548e-06
27	0xb666bb02	-3.4381524e-06
28	0x37062d36	7.997549e-06
29	0x37f51d58	2.921994e-05
30	0xb674d7b4	-3.648439e-06
31	0x36f52328	7.3056617e-06
32	0xb852c711	-5.0253297e-05
33	0x37980773	1.812328e-05
34	0x3749d406	1.2029899e-05
35	0xb79a9123	-1.8425815e-05
36	0x35c0a79a	1.4353893e-06
37	0xb65cccea	-3.290183e-06
38	0x36608aae	3.3459323e-06
39	0x37797c93	1.4870561e-05
40	0xb7369c3c	-1.08844215e-05
41	0xb6f35ea5	-7.2529824e-06
42	0xb7658f47	-1.3682823e-05
43	0xb48c8f8c	-2.6181476e-07
44	0x37107bef	8.611924e-06
45	0xb7ab85eb	-2.0447149e-05
46	0x364750c1	2.9700316e-06
47	0xb78edb28	-1.7029772e-05
48	0xb703d3f0	-7.857554e-06
49	0x3630c26e	2.6339217e-06
50	0x37a24f7a	1.9348914e-05
51	0x3796625a	1.7927192e-05
52	0x3510670c	5.3794133e-07
53	0xb6b5cdb2	-5.4181664e-06
54	0x35f6787c	1.8363494e-06
55	0xb5b7bc30	-1.3689332e-06
56	0x369179bd	4.335509e-06
57	0xb714d01f	-8.869944e-06
58	0x3787dc14	1.6195736e-05
59	0xb65fc396	-3.3343435e-06
60	0xb84de06f	-4.908483e-05
61	0xb7c6e05a	-2.3707911e-05
62	0x37c0c344	2.2979111e-05
63	0x3710212a	8.5907905e-06
64	0x36071a86	2.0132006e-06
65	0x35e1a534	1.6811887e-06
66	0x3704e820	7.921859e-06
67	0xb623c8cf	-2.4405779e-06
68	0x36b70024	5.4538414e-06
69	0x3735a5b4	1.08270215e-05
70	0x36baf02b	5.571191e-06
71	0xb7899df8	-1.6405233e-05
72	0x369691cc	4.4873213e-06
73	0xb6be6dea	-5.675237e-06
74	0xb727609c	-9.976469e-06
75	0x375a91a2	1.302772e-05
76	0xb5ab3523	-1.2755958e-06
77	0xb6f43bfa	-7.278749e-06
78	0x36d9b5f8	6.488288e-06
79	0xb6fec43c	-7.5926346e-06
80	0xb7b71a90	-2.182767e-05
81	0x379d6777	1.8764038e-05
82	0xb706ca4e	-8.034125e-06
83	0xb748738a	-1.194783e-05
84	0x3795d012	1.7859074e-05
85	0xb718170a	-9.06527e-06
86	0xb703e6b1	-7.8619205e-06
87	0x3763d64a	1.3580147e-05
88	0xb7969269	-1.7949571e-05
89	0xb78816c9	-1.6223074e-05
90	0xb77db1b6	-1.5121352e-05
91	0x374660d4	1.1824264e-05
92	0x37f6b0f8	2.9407893e-05
93	0x36bd4cfe	5.641602e-06
94	0xb75f7b9b	-1.3320615e-05
95	0xb755b409	-1.2737707e-05
96	0xb83ed786	-4.5500252e-05
97	0x36d00388	6.199294e-06
98	0xb6c4e86e	-5.8683136e-06
99	0x3777427c	1.4737827e-05
100	0xb70144be	-7.7050045e-06
101	0xb4d76c0e	-4.012549e-07
102	0xb73c6e82	-1.1231403e-05
103	0xb6f05aa4	-7.1631093e-06
104	0xb50e8afa	-5.310136e-07
105	0x3650d7ed	3.11201e-06
106	0x35a755ed	1.2467477e-06
107	0xb8425153	-4.6328943e-05
108	0x3569d4d8	8.710899e-07
109	0xb6c2ca4a	-5.8052e-06
110	0x3860244b	5.3439562e-05
111	0xb7dc279f	-2.6244494e-05
112	0xb69423a2	-4.414892e-06
113	0x378a5218	1.648911e-05
114	0xb7f9b9e4	-2.9769675e-05
115	0x3783d7e5	1.571695e-05
116	0xb4eb9a80	-4.3884575e-07
117	0xb4deea40	-4.1521162e-07
118	0x37299952	1.0108883e-05
119	0x375153de	1.2476898e-05
120	0xb608d0e6	-2.0387174e-06
121	0x3790d2c7	1.7264289e-05
122	0x36d9dc51	6.492752e-06
123	0xb7531cbf	-1.2583273e-05
124	0xb7103e04	-8.597508e-06
125	0xb6a5b5a4	-4.938529e-06
126	0xb819cc26	-3.666817e-05
127	0xb7b29d8b	-2.1292615e-05
128	0x3799a1a5	1.8314293e-05
129	0x372a9687	1.0167837e-05
130	0x3754791e	1.26643845e-05
131	0xb72c8022	-1.0281832e-05
132	0xb7e73147	-2.7560292e-05
133	0x373045df	1.0506686e-05
134	0xb66f9100	-3.5698176e-06
135	0xb7c67b13	-2.366075e-05
136	0xb5c65cc1	-1.4779145e-06
137	0xb6cd8e9c	-6.126078e-06
138	0xb7a6deab	-1.989243e-05
139	0x369ddb84	4.7045196e-06
140	0x34fde690	4.7292679e-07
141	0xb78750f8	-1.6130958e-05
142	0x36e050f0	6.6851426e-06
143	0xb71c5b3a	-9.319565e-06
144	0xb80677ff	-3.2059845e-05
145	0xb716513d	-8.9596115e-06
146	0x35416500	7.2045077e-07
147	0xb7150fa4	-8.884734e-06
148	0x378a23fd	1.646764e-05
149	0x379c27d5	1.8615197e-05
150	0xb6bb5fc4	-5.584183e-06
151	0xb7061fb1	-7.994401e-06
152	0xb74493e4	-1.1716944e-05
153	0xb41b7154	-1.4476728e-07
154	0xb6f71114	-7.363162e-06
155	0xb75051cb	-1.241681e-05
156	0xb714648f	-8.844901e-06
157	0x35de51b8	1.6564072e-06
158	0xb7a42013	-1.956526e-05
159	0x367fae80	3.8099533e-06
160	0xb7b4036a	-2.1459262e-05
161	0xb6b51d08	-5.3976e-06
162	0xb7054156	-7.94263e-06
163	0x38321335	4.2456395e-05
164	0xb84512d7	-4.6986006e-05
165	0xb7d230c0	-2.5056652e-05
166	0xb782a600	-1.5574507e-05
167	0x35a86992	1.25477e-06
168	0xb818ecb7	-3.6460082e-05
169	0xb79d673c	-1.876393e-05
170	0x378f24d6	1.7064081e-05
171	0xb745c596	-1.1788119e-05
172	0x383a24cf	4.4380136e-05
173	0xb7a9b495	-2.023046e-05
174	0x37835f66	1.566084e-05
175	0xb8b7c042	-8.761931e-05
176	0xb36ec2c0	-5.5590817e-08
177	0x3790e466	1.7272494e-05
178	0xb70a6699	-8.249329e-06
179	0xb78685cf	-1.6036354e-05
180	0xb6ff8152	-7.614647e-06
181	0xb7b707cb	-2.1818929e-05
182	0xb7696a7b	-1.3912674e-05
183	0x37787240	1.4808553e-05
184	0x34c047e0	3.5815083e-07
185	0x36e873aa	6.927604e-06
186	0x37084c8a	8.124052e-06
187	0x36b60f32	5.4257916e-06
188	0xb612dc14	-2.1883798e-06
189	0x3674d28b	3.6481385e-06
190	0x368de678	4.2289576e-06
191	0xb6455ac6	-2.9408125e-06
192	0xb72709e1	-9.956276e-06
193	0x371a7088	9.205316e-06
194	0xb66ad2a2	-3.4991322e-06
195	0x37777319	1.47491455e-05
196	0xb742a35a	-1.1601334e-05
197	0x34933a18	2.7423152e-07
198	0xb56d247a	-8.834246e-07
199	0x37a078c2	1.9129719e-05
200	0xb7de7860	-2.6520516e-05
201	0x368b54ae	4.152381e-06
202	0xb7e9ea97	-2.7885004e-05
203	0x379c9699	1.8666777e-05
204	0x379f1fab	1.8969024e-05
205	0x35c6d873	1.4815145e-06
206	0x3603f524	1.9663212e-06
207	0x379c7379	1.865042e-05
208	0x37acb874	2.058989e-05
209	0x35a09986	1.196561e-06
210	0x362262fe	2.4197502e-06
211	0xb7100a5a	-8.585479e-06
212	0x371a24b0	9.187657e-06
213	0xb7035214	-7.827319e-06
214	0x364bf343	3.0390954e-06
215	0x36b44594	5.372518e-06
216	0xb62ffd5a	-2.6224502e-06
217	0x37260af0	9.896918e-06
218	0x36b4dc3c	5.3900567e-06
219	0xb7754f75	-1.4621638e-05
220	0x37e62c63	2.7438806e-05
221	0x371e523e	9.436682e-06
222	0xb72de4e3	-1.0364895e-05
223	0x3840013f	4.5777528e-05
224	0xb748c339	-1.1966383e-05
225	0xb7a69c5a	-1.9861549e-05
226	0xb5dcd5aa	-1.6453462e-06
227	0xb6a82ab6	-5.0117624e-06
228	0x377246e3	1.4440829e-05
229	0x37d9d3c6	2.596703e-05
230	0xb7b85969	-2.1976144e-05
231	0xb6bf34b6	-5.69838e-06
232	0xb69e7010	-4.7218127e-06
233	0xb7ba05d5	-2.2175644e-05
234	0x37afeba7	2.097136e-05
235	0xb73b9cb0	-1.118255e-05
236	0x37f47736	2.9142579e-05
237	0x383b0de5	4.4597215e-05
238	0x37919231	1.7353423e-05
239	0x36549bfe	3.168126e-06
240	0x34e7f198	4.3202886e-07
241	0xb7210fca	-9.600024e-06
242	0xb73a0c0d	-1.108927e-05
243	0xb6d786db	-6.4231986e-06
244	0x373fddd9	1.143614e-05
245	0xb6e131e6	-6.7113315e-06
246	0xb776c274	-1.4708017e-05
247	0x37a22ac9	1.9331828e-05
248	0x36ba6f4b	5.556188e-06
249	0xb713071c	-8.763538e-06
250	0x3717d9e8	9.051037e-06
251	0xb7b13b52	-2.1127667e-05
252	0xb78737ca	-1.6119233e-05
253	0xb6294a66	-2.5226268e-06
254	0x37b44512	2.1489835e-05
255	0x377c0c1c	1.502319e-05

model.1.weight f4 [256]
0	0x3f3af452	0.73029053
1	0x3f642400	0.8911743
2	0x3f2643fd	0.6494749
3	0x3f3b7fa6	0.7324165
4	0x3f435131	0.76295763
5	0x3f3cf3ad	0.7380932
6	0x3f3c225c	0.7348993
7	0x3f491f0c	0.78563
8	0x3f24524f	0.6418809
9	0x3f8747fa	1.056884
10	0x3f4f0148	0.8086133
11	0x3f411d3c	0.75435233
12	0x3f32299d	0.69594747
13	0x3f32729d	0.69706136
14	0x3f3b212f	0.7309751
15	0x3f3ec0f3	0.7451317
16	0x3f43f8a0	0.76551247
17	0x3f46a929	0.7760187
18	0x3f5dc45d	0.8662775
19	0x3f4e365c	0.80551696
20	0x3f34131c	0.7034166
21	0x3f5077f0	0.8143301
22	0x3f4b0392	0.7930232
23	0x3f45da7c	0.77286506
24	0x3f230eca	0.6369444
25	0x3f5d1e15	0.86374027
26	0x3f260dca	0.6486479
27	0x3f650887	0.89466137
28	0x3f368db0	0.7130995
29	0x3f485b82	0.7826463
30	0x3f33e377	0.7026896
31	0x3f1c8f20	0.6115589
32	0x3f5a38f0	0.8524313
33	0x3f4fe4a3	0.81208247
34	0x3f40948b	0.7522666
35	0x3f3fc7e7	0.749144
36	0x3f4a2c10	0.78973484
37	0x3f19dbc2	0.6010095
38	0x3f44c3cd	0.7686127
39	0x3f583fff	0.8447265
40	0x3f39b7a3	0.7254583
41	0x3f5db623	0.86606044
42	0x3f375d64	0.7162688
43	0x3f1da9f0	0.6158743
44	0x3f251be3	0.64495677
45	0x3f3bfcbb	0.7343251
46	0x3f2cca3c	0.67496085
47	0x3f3de7ad	0.74181634
48	0x3f2e1584	0.6800158
49	0x3f40ecf6	0.75361574
50	0x3f769ebc	0.9633596
51	0x3f462d2d	0.7741268
52	0x3f441661	0.7659665
53	0x3f3a46d5	0.7276433
54	0x3f41be2a	0.7568079
55	0x3f4b74ec	0.79475284
56	0x3f2932d2	0.6609317
57	0x3f379286	0.7170795
58	0x3f4398b0	0.7640486
59	0x3f58a2ff	0.8462371
60	0x3f473877	0.77820534
61	0x3f5a4512	0.8526164
62	0x3f386986	0.72036016
63	0x3f38d61d	0.7220171
64	0x3f6496d1	0.8929263
65	0x3f5666b3	0.83750457
66	0x3f3a385a	0.72742236
67	0x3f57b2da	0.8425728
68	0x3f3431eb	0.7038867
69	0x3f3e08f8	0.74232435
70	0x3f4544ea	0.7705828
71	0x3f5b8c01	0.85760504
72	0x3f51307d	0.8171461
73	0x3f2807c2	0.6563684
74	0x3f473443	0.7781412
75	0x3f3277cd	0.6971405
76	0x3f452b0d	0.77018815
77	0x3f60e8cc	0.8785522
78	0x3f284d68	0.6574311
79	0x3f493a82	0.786049
80	0x3f3bd76c	0.7337558
81	0x3f4211ae	0.7580823
82	0x3f4b0349	0.7930189
83	0x3f430a03	0.7618715
84	0x3f6a7520	0.9158497
85	0x3f75c552	0.9600421
86	0x3f22fbd9	0.6366554
87	0x3f4266fb	0.75938386
88	0x3f4514c7	0.7698483
89	0x3f81101f	1.0083045
90	0x3f720934	0.9454529
91	0x3f2dda49	0.679112
92	0x3f4ce6c2	0.8003961
93	0x3f49ccc5	0.7882808
94	0x3f54697b	0.8297345
95	0x3f3d2ca8	0.73896265
96	0x3f85778f	1.0427111
97	0x3f306ad7	0.68913025
98	0x3f2fa38b	0.6860892
99	0x3f56136e	0.836234
100	0x3f5aa8dc	0.8541391
101	0x3f2d901f	0.67798036
102	0x3f202e69	0.62570816
103	0x3f577f27	0.84178394
104	0x3f4d8cd6	0.80293024
105	0x3f2960e8	0.6616349
106	0x3f56014b	0.8359572
107	0x3f5587c4	0.83410287
108	0x3f772cba	0.9655262
109	0x3f6158a6	0.8802589
110	0x3f3ed584	0.7454455
111	0x3f65e1a9	0.89797455
112	0x3f359442	0.7092935
113	0x3f62c81e	0.88586605
114	0x3f319e07	0.69381756
115	0x3f68bea3	0.9091589
116	0x3f3d2672	0.7388679
117	0x3f3e961b	0.7444779
118	0x3f195eab	0.59910077
119	0x3f30db05	0.690842
120	0x3f431e46	0.7621807
121	0x3f31eff0	0.6950674
122	0x3f4c417c	0.7978742
123	0x3f30d94a	0.69081557
124	0x3f3dafa1	0.74096113
125	0x3f4e7fbd	0.80663663
126	0x3f6b8faf	0.9201612
127	0x3f4345f8	0.7627864
128	0x3f233bf4	0.63763356
129	0x3f2c6d6b	0.6735446
130	0x3f3b6557	0.7320151
131	0x3f3bc8e6	0.7335342
132	0x3f4e1d0b	0.80513066
133	0x3f34632b	0.7046382
134	0x3f5ffa20	0.87491035
135	0x3f80d593	1.0065178
136	0x3f465f50	0.77489185
137	0x3f491a1f	0.7855548
138	0x3f46b4cd	0.7761963
139	0x3f4a3ea7	0.7900185
140	0x3f39029b	0.722696
141	0x3f4fedba	0.81222117
142	0x3f5a0548	0.8516431
143	0x3f59167a	0.8479992
144	0x3f5bf289	0.85916954
145	0x3f2fd176	0.6867899
146	0x3f4d5091	0.8020106
147	0x3f40551f	0.75129884
148	0x3f3266ec	0.69688296
149	0x3f130b7e	0.5743941
150	0x3f3681c3	0.7129175
151	0x3f3fd0e9	0.74928147
152	0x3f3ba51f	0.7329883
153	0x3f47f339	0.78105503
154	0x3f400b81	0.75017554
155	0x3f31ddc1	0.69478995
156	0x3f3851dd	0.71999913
157	0x3f3cecec	0.73799014
158	0x3f2e17c4	0.68005013
159	0x3f2f50d5	0.68482715
160	0x3f3af5ec	0.73031497
161	0x3f61dea1	0.8823033
162	0x3f27bdcc	0.6552398
163	0x3f8238cc	1.0173583
164	0x3f5e6318	0.86869955
165	0x3f9a3c91	1.2049733
166	0x3f403d29	0.75093323
167	0x3f457ba1	0.7714177
168	0x3f3db227	0.74099964
169	0x3f61973c	0.8812139
170	0x3f5a81c3	0.8535425
171	0x3f3e35e0	0.74300957
172	0x3f7b011a	0.98048556
173	0x3f3b5e95	0.73191196
174	0x3f5fa6a8	0.8736367
175	0x3f93eed7	1.1557263
176	0x3f5b360b	0.8562934
177	0x3f1ff3fc	0.62481666
178	0x3f49910f	0.78736967
179	0x3f577d1b	0.8417527
180	0x3f51cd84	0.81954217
181	0x3f35b3f3	0.70977706
182	0x3f3c42b2	0.7353927
183	0x3f576281	0.8413468
184	0x3f18da56	0.59708154
185	0x3f42c8fd	0.76087934
186	0x3f3e0265	0.74222404
187	0x3f4da787	0.8033375
188	0x3f87dfae	1.0615137
189	0x3f4968e2	0.78675663
190	0x3f4d5b4a	0.8021742
191	0x3f5ee6b6	0.87070787
192	0x3f34cd9d	0.7062624
193	0x3f40df4d	0.7534073
194	0x3f45559b	0.7708375
195	0x3f3832ae	0.7195233
196	0x3f4f093c	0.80873466
197	0x3f833ed3	1.0253547
198	0x3f41c0aa	0.7568461
199	0x3f617a9c	0.8807771
200	0x3f40b4fb	0.75276154
201	0x3f45e734	0.7730591
202	0x3f44f1b5	0.76931316
203	0x3f3f7b34	0.7479737
204	0x3f4d65ba	0.8023335
205	0x3f38b432	0.72149956
206	0x3f46074b	0.7735488
207	0x3f2ab8db	0.6668832
208	0x3f4b7089	0.7946859
209	0x3f5afc09	0.85540825
210	0x3f2f142a	0.6839014
211	0x3f3c0c09	0.73455864
212	0x3f26c85c	0.65149474
213	0x3f28fbfd	0.66009504
214	0x3f233a97	0.63761276
215	0x3f2ef294	0.68338895
216	0x3f5bd772	0.8587562
217	0x3f521000	0.82055664
218	0x3f51cf98	0.8195739
219	0x3f36f1e4	0.71462846
220	0x3f331c7d	0.69965345
221	0x3f36a51b	0.7134568
222	0x3f201641	0.62533957
223	0x3f5e8caf	0.86933416
224	0x3f300ecb	0.6877257
225	0x3f4452e1	0.76688963
226	0x3f34233a	0.7036625
227	0x3f4da4ef	0.80329794
228	0x3f3db89d	0.7410982
229	0x3f59f31a	0.8513657
230	0x3f405287	0.75125927
231	0x3f382478	0.71930647
232	0x3f31ad79	0.69405323
233	0x3f67f69a	0.9061066
234	0x3f45b41b	0.77227944
235	0x3f7113ec	0.94171023
236	0x3f352c9f	0.7077121
237	0x3f4d67e2	0.8023664
238	0x3f3331a8	0.69997644
239	0x3f50b68d	0.8152855
240	0x3f556627	0.83359
241	0x3f3d7aa8	0.74015284
242	0x3f380da4	0.71895814
243	0x3f2a06b6	0.6641649
244	0x3f491225	0.7854331
245	0x3f2b46fb	0.6690518
246	0x3f28cad5	0.659345
247	0x3f48b10e	0.78395164
248	0x3f25a000	0.64697266
249	0x3f429035	0.7600129
250	0x3f51c8ad	0.8194683
251	0x3f3e96da	0.7444893
252	0x3f371886	0.71521795
253	0x3f2f2ad1	0.6842471
254	0x3f3b7354	0.7322285
255	0x3f3d1dd9	0.7387367

model.1.bias f4 [256]
0	0xbef87355	-0.4852549
1	0xbefd45a6	-0.494672
2	0xbec4e9af	-0.38459536
3	0xbe4e9f5a	-0.20177975
4	0xbe7c59da	-0.2464365
5	0xbed874fb	-0.4227675
6	0xbeb667f7	-0.35626194
7	0xbeb70497	-0.3574569
8	0xbee4b174	-0.44666636
9	0xbf075b6d	-0.5287388
10	0xbead4d18	-0.3384788
11	0xbe23ba69	-0.15989079
12	0xbe5abb12	-0.21360424
13	0xbed3d9c8	-0.4137709
14	0xbeebc85e	-0.46051306
15	0xbe8d60d6	-0.27612942
16	0xbe0a0fb0	-0.13482547
17	0xbefc716e	-0.4930529
18	0xbe7e794b	-0.24850957
19	0xbf059401	-0.5217896
20	0xbe8a3a89	-0.26997784
21	0xbe971cec	-0.29514253
22	0xbec0ebe5	-0.37679973
23	0xbe90bc57	-0.28268692
24	0xbe938522	-0.2881251
25	0xbea552e0	-0.3228979
26	0xbe9df074	-0.30847514
27	0xbe6832e2	-0.2267566
28	0xbe92bde3	-0.28660497
29	0xbed025d4	-0.4065386
30	0xbe8ac320	-0.27101994
31	0xbe4ced70	-0.2001245
32	0xbedcaa6c	-0.43098772
33	0xbe6b0fd2	-0.22955254
34	0xbec3b86e	-0.38226646
35	0xbe05e748	-0.13076508
36	0xbec856ac	-0.39128625
37	0xbed1945c	-0.40933502
38	0xbe6d65e7	-0.23183404
39	0xbea6a110	-0.32544756
40	0xbee2dd31	-0.4430938
41	0xbe3b74fb	-0.18306343
42	0xbe8ead03	-0.27866372
43	0xbe9a7bf9	-0.3017271
44	0xbe9f6536	-0.31131905
45	0xbe930cb1	-0.2872062
46	0xbe9d4067	-0.30713198
47	0xbee561fe	-0.44801325
48	0xbea95c62	-0.33078295
49	0xbe8c0289	-0.27345684
50	0xbead2087	-0.3381388
51	0xbe88a178	-0.2668569
52	0xbe8522a6	-0.26002997
53	0xbe4c87f7	-0.19973741
54	0xbea3e779	-0.32012537
55	0xbe8d7b78	-0.27633262
56	0xbec7672d	-0.38945904
57	0xbec635d9	-0.38712958
58	0xbe2d1eed	-0.16906328
59	0xbf093a72	-0.53604805
60	0xbe9a03e7	-0.30081102
61	0xbea97e04	-0.33103955
62	0xbe8dee9e	-0.27721113
63	0xbeefbce4	-0.468238
64	0xbed11bce	-0.40841526
65	0xbec21d08	-0.37912774
66	0xbe815106	-0.25257128
67	0xbe46afdd	-0.19403024
68	0xbe946b98	-0.28988338
69	0xbda7212f	-0.08160626
70	0xbec3a533	-0.38211975
71	0xbe8997ea	-0.26873714
72	0xbe8d8c05	-0.2764589
73	0xbee0bb2c	-0.438928
74	0xbead96a1	-0.33903983
75	0xbf0b99ee	-0.54531753
76	0xbec55b60	-0.38546276
77	0xbe99e3f1	-0.30056718
78	0xbef8b15e	-0.4857282
79	0xbedaca55	-0.42732492
80	0xbeaced0d	-0.33774605
81	0xbe53be1f	-0.20677994
82	0xbeaa99e0	-0.33320522
83	0xbea92b6c	-0.3304094
84	0xbf187b86	-0.5956348
85	0xbefd7a36	-0.49507302
86	0xbedffbb6	-0.43746728
87	0xbe1008bc	-0.14065832
88	0xbe65b20e	-0.22431204
89	0xbf306928	-0.68910456
90	0xbebf8990	-0.3740964
91	0xbe970d78	-0.29502463
92	0xbea38171	-0.31934693
93	0xbe940625	-0.28910938
94	0xbe779b21	-0.2418027
95	0xbeb2a01a	-0.34887773
96	0xbf007f42	-0.5019418
97	0xbea57254	-0.32313788
98	0xbe73d497	-0.23811565
99	0xbe75a3a2	-0.23988202
100	0xbeba6b90	-0.3641019
101	0xbeb66db5	-0.35630575
102	0xbed02470	-0.406528
103	0xbe0eb1b0	-0.1393497
104	0xbebd3848	-0.36957002
105	0xbebf4af4	-0.37361872
106	0xbeb65d10	-0.35617876
107	0xbe93cbb0	-0.2886634
108	0xbeeaad86	-0.45835513
109	0xbed0ae3f	-0.4075794
110	0xbe841fc5	-0.25805488
111	0xbf2a1a20	-0.66446114
112	0xbec92242	-0.3928395
113	0xbea89b59	-0.3293102
114	0xbefc41f8	-0.4926908
115	0xbe0d0c44	-0.1377421
116	0xbed9a2f9	-0.4250715
117	0xbeaa5388	-0.33266854
118	0xbe8b28ed	-0.2717966
119	0xbec26e07	-0.3797457
120	0xbe3ae927	-0.18253003
121	0xbe95a29a	-0.29225618
122	0xbec5b6c4	-0.38616002
123	0xbecde327	-0.40212366
124	0xbead6d1c	-0.33872306
125	0xbe811a4c	-0.25215375
126	0xbec5fdd1	-0.3867021
127	0xbebf65b8	-0.37382293
128	0xbea0bbd7	-0.3139331
129	0xbed8815d	-0.42286196
130	0xbf127233	-0.57205504
131	0xbeeb3974	-0.4594227
132	0xbee1ebfb	-0.4412535
133	0xbf06f72a	-0.5272089
134	0xbe8c12d6	-0.2735812
135	0xbf0278e4	-0.50965714
136	0xbe1bab8d	-0.1520216
137	0xbe89f36a	-0.26943523
138	0xbed7af54	-0.42125952
139	0xbed65881	-0.41864398
140	0xbef975ed	-0.48722783
141	0xbeeed1e1	-0.466445
142	0xbe4c1d41	-0.19933034
143	0xbec24e16	-0.379502
144	0xbe630043	-0.22168069
145	0xbea1a7c6	-0.31573313
146	0xbed28fa7	-0.41125223
147	0xbedc035e	-0.4297132
148	0xbec3fe63	-0.3828002
149	0xbe774fe2	-0.24151567
150	0xbe44fe2c	-0.19237584
151	0xbe475db4	-0.19469339
152	0xbeb9f5a9	-0.36320236
153	0xbe147752	-0.14498642
154	0xbea26808	-0.31719995
155	0xbf011a3a	-0.50430644
156	0xbec12bf7	-0.37728855
157	0xbe744df5	-0.23857863
158	0xbec565e8	-0.3855431
159	0xbeb4c353	-0.3530527
160	0xbeb35324	-0.3502437
161	0xbe83c663	-0.25737295
162	0xbeaf885d	-0.34283724
163	0xbed07a51	-0.4071832
164	0xbe979dec	-0.29612672
165	0xbeb1a272	-0.34694248
166	0xbea170af	-0.31531283
167	0xbe7f5ab3	-0.24936943
168	0xbe760350	-0.24024701
169	0xbee901ab	-0.45509085
170	0xbedc667c	-0.4304694
171	0xbe85ee9b	-0.26158604
172	0xbee6d515	-0.45084444
173	0xbef0da12	-0.47041374
174	0xbf08dfd8	-0.5346656
175	0xbe094269	-0.1340424
176	0xbec25905	-0.37958542
177	0xbeb34831	-0.35016015
178	0xbee29d8b	-0.4426082
179	0xbeb18a39	-0.34675768
180	0xbe4a8f07	-0.19781123
181	0xbe805db8	-0.25071502
182	0xbec4886f	-0.3838534
183	0xbef20406	-0.47268695
184	0xbe76f366	-0.24116287
185	0xbeca5f4d	-0.39525834
186	0xbee0daf1	-0.4391704
187	0xbead90ea	-0.33899623
188	0xbf0a4b30	-0.5402098
189	0xbe76d9a9	-0.24106468
190	0xbdccf6b7	-0.100079946
191	0xbf021f64	-0.5082915
192	0xbeaeaa6b	-0.34114394
193	0xbe44ded9	-0.19225635
194	0xbe98c667	-0.2983887
195	0xbed2d3bd	-0.41177168
196	0xbe9b7213	-0.3036047
197	0xbf0424a7	-0.5161843
198	0xbedd6baf	-0.4324622
199	0xbe2b2196	-0.16712031
200	0xbee25a1c	-0.44209373
201	0xbe415534	-0.18880159
202	0xbe97eb5b	-0.2967175
203	0xbe12429e	-0.14283225
204	0xbe9287de	-0.28619283
205	0xbee4e9a9	-0.4470952
206	0xbe54c2ff	-0.2077751
207	0xbed74f6b	-0.4205278
208	0xbee61fb5	-0.44946066
209	0xbe4d5411	-0.200516
210	0xbebd2a88	-0.3694651
211	0xbea0bb5c	-0.31392944
212	0xbf033c28	-0.51263666
213	0xbeb5a10d	-0.35474434
214	0xbe9a33ae	-0.30117553
215	0xbe89abd0	-0.26888895
216	0xbe5bef8e	-0.21478102
217	0xbedafefb	-0.4277266
218	0xbe247c04	-0.16062933
219	0xbeb621d5	-0.35572687
220	0xbe92744e	-0.28604358
221	0xbedb44da	-0.42825967
222	0xbee0d51d	-0.43912593
223	0xbe8a0352	-0.26955658
224	0xbee0d890	-0.43915224
225	0xbe83c6ce	-0.25737613
226	0xbeb7f6a6	-0.35930365
227	0xbe4ca0eb	-0.1998326
228	0xbea44fca	-0.32092124
229	0xbea4ceef	-0.32189128
230	0xbed29034	-0.41125643
231	0xbe55f9ff	-0.20896147
232	0xbef307c2	-0.47466856
233	0xbeaa9ed1	-0.33324292
234	0xbeec0773	-0.46099433
235	0xbec7b648	-0.39006257
236	0xbee3e00d	-0.44506875
237	0xbed0dff5	-0.40795866
238	0xbec89747	-0.39177915
239	0xbdbcc93b	-0.09218069
240	0xbc86ae94	-0.016440667
241	0xbe892ebd	-0.2679347
242	0xbed300f6	-0.4121167
243	0xbec3941c	-0.38198936
244	0xbeb8c988	-0.36091256
245	0xbea5013e	-0.3222751
246	0xbeb59683	-0.35466394
247	0xbea4e95d	-0.32209292
248	0xbea39720	-0.31951237
249	0xbe8d15ce	-0.27555698
250	0xbecac7ca	-0.39605552
251	0xbee7a548	-0.45243287
252	0xbecbc69b	-0.3979996
253	0xbe1c9be2	-0.1529384
254	0xbe112a30	-0.1417625
255	0xbe95af38	-0.29235244

model.1.running_mean f4 [256]
0	0x3b91c764	0.004448818
1	0x3af88e39	0.0018963284
2	0xbb334756	-0.0027355752
3	0x3bda78b0	0.006667219
4	0xba1afa42	-0.0005911925
5	0xb9ac61a5	-0.00032879147
6	0x3a76f116	0.000942008
7	0xbb245f4a	-0.002508121
8	0x3b0a6b43	0.0021121062
9	0x3ba5c975	0.005059416
10	0x3bd06fb3	0.006360972
11	0x39f9ca24	0.00047643587
12	0xba4b8765	-0.0007764011
13	0x3b4321a2	0.0029774685
14	0x3c221255	0.009892066
15	0x3c2e05aa	0.010621468
16	0x3bbca234	0.005756641
17	0xbacea1a7	-0.0015764729
18	0x3bd7e87c	0.0065889936
19	0x3b235781	0.0024923983
20	0xb8c65f64	-9.4591436e-05
21	0x3b7e1bfc	0.0038774004
22	0xbb59f2b2	-0.003325623
23	0x3bc7cc78	0.0060973726
24	0xbbb7c9af	-0.0056087594
25	0xbb801cf6	-0.0039097024
26	0x3998c8e7	0.00029141383
27	0xbb5b92e6	-0.0033504306
28	0x3bf34a3d	0.0074246214
29	0xba299e88	-0.00064704614
30	0xbba02db5	-0.004888261
31	0x3b46a77d	0.0030312233
32	0x3a65311f	0.00087429764
33	0x3c5261fd	0.012840745
34	0xba216e7d	-0.00061581266
35	0x3bda7120	0.0066663176
36	0x3a5ab067	0.0008342326
37	0xbb4dbaf3	-0.0031391948
38	0x3b365e7c	0.0027827313
39	0x3b51c3f6	0.003200767
40	0xbbe874c9	-0.007094
41	0x3c32a337	0.010903171
42	0xbba941fc	-0.0051653367
43	0xbc81017d	-0.01574778
44	0xbbb52bcd	-0.005528903
45	0x3c136426	0.008996045
46	0x39d89e13	0.00041316505
47	0x3be8266a	0.0070846574
48	0x3a85690f	0.0010178405
49	0x3b88d2d8	0.004175525
50	0x3b9e2d33	0.0048271655
51	0x3bb486f8	0.0055092536
52	0xbbc5797a	-0.006026444
53	0x3c244cf6	0.010028115
54	0xba0b0f8a	-0.00053047447
55	0xbbb27af4	-0.005446786
56	0x3b6693d8	0.0035183337
57	0x3b249f49	0.0025119355
58	0x3beda932	0.0072528357
59	0xbb8cd2a2	-0.0042975703
60	0x3b084b0e	0.002079669
61	0x3ac59d2a	0.0015076746
62	0x3b79d62a	0.0038122036
63	0x3b9a581b	0.00471021
64	0x38fffea6	0.000122067795
65	0x3b8b5a0f	0.004252679
66	0x3bb1d322	0.0054267803
67	0x3b8a383f	0.004218131
68	0xbc4cd330	-0.012501523
69	0x3be33226	0.0069334684
70	0xbad68b56	-0.001636843
71	0x3a74ce96	0.0009338645
72	0xbb65078d	-0.0034947128
73	0x3b21aa46	0.0024668141
74	0x3b83d9c2	0.0040237615
75	0xbb927615	-0.004469643
76	0x3a1cc525	0.00059803046
77	0xbbc47c27	-0.0059962454
78	0x3c322720	0.010873586
79	0x3b880401	0.004150868
80	0xbc442207	-0.011971003
81	0xbbedba6d	-0.0072548897
82	0x3b09f54c	0.002105075
83	0xbc1943b5	-0.0093545215
84	0xbb4945b3	-0.003071171
85	0x3958d5aa	0.00020678961
86	0xbb1016db	-0.002198628
87	0xba95f8a6	-0.0011441901
88	0x3b4ddbd1	0.0031411538
89	0x3b23dbda	0.0025002868
90	0x3c361d2a	0.011115352
91	0x3c35a665	0.011087035
92	0xbb379cd5	-0.0028017063
93	0xbbecde94	-0.007228682
94	0x3afe60fa	0.0019407563
95	0xbbd34738	-0.006447699
96	0x3a95a3d0	0.0011416618
97	0x3bd1407f	0.0063858624
98	0xbae2bf41	-0.001729943
99	0xbac00cb5	-0.0014652224
100	0x3b7413f0	0.003724333
101	0xbacabff1	-0.001546858
102	0xb9ef3313	-0.00045623686
103	0x3c6f0da7	0.014590657
104	0x3b9e357a	0.0048281522
105	0xbb5b44a2	-0.0033457656
106	0x3bdcf16a	0.006742646
107	0x3b9747d9	0.004616719
108	0xbc0ce773	-0.008600104
109	0x3c1a5c57	0.00942143
110	0xba3fea02	-0.00073209417
111	0xbab9afcd	-0.0014166773
112	0x3bbffc1a	0.0058589103
113	0xba31b4b6	-0.0006778942
114	0x3b891782	0.0041837106
115	0x3b457fb6	0.0030135936
116	0x3c0441d2	0.008072333
117	0x3a6a6805	0.0008941892
118	0xbbc2e4df	-0.0059476937
119	0x3b89c94d	0.004204905
120	0x3aafbb1a	0.0013407201
121	0xbb01c063	-0.001979851
122	0xbba9deab	-0.005184015
123	0x3be1c127	0.0068894806
124	0x3c7830c8	0.015148349
125	0x3aa001bb	0.0012207547
126	0x3c0e54e9	0.008687236
127	0x3ab487b1	0.0013773349
128	0xb998938a	-0.00029101624
129	0xbc16d2d5	-0.00920554
130	0xba37419c	-0.00069906726
131	0x3bc2fdba	0.0059506567
132	0x3bb17f85	0.005416813
133	0xbb7571bc	-0.0037451824
134	0x3c1661a6	0.009178555
135	0xbb3338c6	-0.0027347072
136	0x3bd1d636	0.0064037098
137	0x3be49b21	0.0069765006
138	0x39c1f41b	0.000369937
139	0x3b90e131	0.004421376
140	0xbb3327c9	-0.0027336946
141	0xbaa37861	-0.0012471789
142	0x3ba95fa5	0.0051688724
143	0xbbb0ac51	-0.0053916355
144	0xbb2ca6f7	-0.0026344636
145	0x3b5250f7	0.0032091716
146	0x3b89c212	0.004204043
147	0x39a5a270	0.00031592278
148	0xbbb10b0e	-0.005402929
149	0xbbd505d7	-0.0065009403
150	0x3b4a096e	0.0030828374
151	0x3bab86cc	0.005234575
152	0xbbb03b4b	-0.005378162
153	0x3b932aa9	0.0044911695
154	0xbafa5f1e	-0.0019101833
155	0xbb00b085	-0.0019636464
156	0x3c148989	0.009065994
157	0xbc07dd8d	-0.008292568
158	0xbb6afc26	-0.0035855859
159	0xbb9cd8e8	-0.0047865994
160	0xbbf71547	-0.0075403783
161	0x3c0f529a	0.008747721
162	0x3a415d01	0.00073762244
163	0x3c73bb03	0.01487613
164	0x3b22c9c3	0.0024839498
165	0x3bb5b355	0.0055450597
166	0x3b8624d9	0.004093748
167	0xbc215a53	-0.009848195
168	0xbbff6aa8	-0.007794697
169	0x3bd39e9d	0.006458117
170	0xbb354947	-0.0027662085
171	0xb9c7fd02	-0.00038144743
172	0x37f4da9c	2.9188865e-05
173	0x3b15d52c	0.0022862656
174	0x3b17699d	0.0023103722
175	0x3baf0391	0.0053410013
176	0x3ba1a9bf	0.0049335654
177	0xbc11401f	-0.008865385
178	0xbbd3e11f	-0.0064660455
179	0x3bc1d9df	0.005915865
180	0x3ad8d96b	0.0016544288
181	0x3bc26614	0.005932579
182	0x3b99b179	0.004690346
183	0x39837967	0.0002507672
184	0x3b59b11c	0.0033217138
185	0x3b15617f	0.0022793708
186	0x3ba72238	0.0051005147
187	0xb92d7339	-0.0001654149
188	0x3c0a52eb	0.008442621
189	0x3bcbedf3	0.006223434
190	0xbc02b860	-0.007978529
191	0xbbecb6dc	-0.007223947
192	0xba79c23d	-0.000952754
193	0x3c1a616d	0.009422642
194	0xbae75a4a	-0.001765081
195	0xbc20ca50	-0.00981386
196	0x3b421ea3	0.0029620312
197	0xbb872add	-0.0041249827
198	0xba849089	-0.0010113876
199	0x3b821912	0.003970274
200	0x3bce3735	0.0062932023
201	0xbb2d8d49	-0.0026481918
202	0x3c035fd7	0.0080184555
203	0x3b254344	0.0025217095
204	0x3b0d6bdf	0.0021579189
205	0xbbd35045	-0.006448778
206	0x3bddeec4	0.006772848
207	0xba2393b4	-0.0006239966
208	0x3b09fcc6	0.0021055206
209	0x3af03654	0.0018326738
210	0xbba5c84f	-0.005059279
211	0x3babce66	0.0052431105
212	0x3c5e233d	0.013558206
213	0xbb04d7af	-0.002027016
214	0x3c056c01	0.008143426
215	0xbb8c5cbb	-0.0042835153
216	0x3bcf781b	0.0063314564
217	0x3b76d2fa	0.0037662373
218	0x3c344a9a	0.0110041145
219	0x3beb0b7b	0.0071729994
220	0x3ad1ad56	0.0015997093
221	0x3bed27ac	0.0072373953
222	0xbbfda042	-0.0077400515
223	0x3b9e5ae5	0.004832613
224	0xbb29ec6a	-0.0025928267
225	0x3a591eae	0.00082824647
226	0x3ab101fd	0.0013504621
227	0xbc38189b	-0.011236335
228	0x3bc39b3f	0.0059694345
229	0xba50105d	-0.00079370086
230	0xbb697f39	-0.003562881
231	0xbb080030	-0.0020752065
232	0x3b151ff5	0.0022754644
233	0x39e0bb18	0.00042864005
234	0xbc049539	-0.008092218
235	0x3aacf938	0.0013196832
236	0xba60533b	-0.0008557324
237	0xba9de8cc	-0.0012047528
238	0xbba68551	-0.0050818105
239	0x3c50555d	0.012715665
240	0xbc18ad68	-0.009318687
241	0x3c1e9c5b	0.009680833
242	0xbacee6c9	-0.0015785332
243	0xbbcc6a4e	-0.0062382584
244	0x3b385d61	0.002813183
245	0xbb2c5ed0	-0.002630163
246	0x3bb68e50	0.005571164
247	0x3a879a5d	0.0010345686
248	0x3ad282ab	0.0016060671
249	0xba6f7a28	-0.0009135329
250	0x3bcd279f	0.0062608267
251	0x383a5585	4.4425502e-05
252	0xbc2e546a	-0.010640243
253	0x3bc6dcc8	0.0060687996
254	0x3bd15d90	0.0063893273
255	0x3b547f29	0.0032424426

model.1.running_var f4 [256]
0	0x3f18f83a	0.59753764
1	0x3f5559c9	0.83340126
2	0x3f85dcc4	1.0457997
3	0x3f34f4e3	0.7068617
4	0x3f35165a	0.7073723
5	0x3f3c2ab2	0.7350265
6	0x3f4b6cf5	0.7946313
7	0x3f152c85	0.58271056
8	0x3f2b9d22	0.6703664
9	0x3f72a67f	0.947853
10	0x3f35f595	0.71077853
11	0x3f05286d	0.5201481
12	0x3f343347	0.70390743
13	0x3f16af7a	0.58861506
14	0x3f1957b9	0.5989948
15	0x3f200dcd	0.6252106
16	0x3f6e4242	0.9306985
17	0x3efd1012	0.49426323
18	0x3f705406	0.9387821
19	0x3f428193	0.75978965
20	0x3ef0fee7	0.47069475
21	0x3f1c5c1e	0.6107806
22	0x3f1ae60b	0.6050727
23	0x3f0ceb0a	0.5504614
24	0x40009115	2.008855
25	0x3ea0913d	0.31360808
26	0x3f5e03c3	0.8672449
27	0x3ef8a00e	0.48559612
28	0x3f1aca9c	0.6046541
29	0x3eea632c	0.45778787
30	0x3efe8d71	0.49717286
31	0x3f1feefa	0.62474024
32	0x3e65fc09	0.22459425
33	0x3f6bdd67	0.9213471
34	0x3f301414	0.68780637
35	0x3f39798e	0.724511
36	0x3f38f7c5	0.72253066
37	0x3f36763a	0.7127415
38	0x3f27b0e9	0.6550432
39	0x3eb1ca23	0.3472453
40	0x3f0e3b4d	0.55559236
41	0x3f7b4fa7	0.98168415
42	0x3f12befd	0.57322675
43	0x3ffb8ebd	1.9652935
44	0x3f12ced0	0.5734682
45	0x3f242a52	0.64127076
46	0x3f2aafb1	0.66674334
47	0x3f3f4386	0.7471241
48	0x3fcd31df	1.6030844
49	0x3eeca89d	0.46222392
50	0x3f6ee15f	0.9331264
51	0x3f0d9f22	0.5532094
52	0x3edae763	0.4275466
53	0x3f81c9ef	1.013975
54	0x3f1b7ae5	0.607344
55	0x3f3815bd	0.7190817
56	0x3f519556	0.81868494
57	0x3f14024d	0.5781601
58	0x3f5b2e09	0.8561712
59	0x3f176498	0.5913787
60	0x3ed631e6	0.41834944
61	0x3ed8f5ae	0.4237494
62	0x3f0a5d49	0.5404859
63	0x3f66d248	0.90164614
64	0x3f12e099	0.5737396
65	0x3ed4885f	0.41510293
66	0x3f302f72	0.68822396
67	0x3f7e4f52	0.99339783
68	0x3f2460d2	0.64210236
69	0x3f960f33	1.1723388
70	0x3fb7b1d0	1.4351139
71	0x3f710501	0.9414826
72	0x3f27de8b	0.6557395
73	0x3faa9b81	1.3328706
74	0x3f383900	0.71961975
75	0x3f40dd31	0.7533751
76	0x3eeb568d	0.4596447
77	0x3f3251e3	0.696562
78	0x3f244156	0.64162195
79	0x3f426a05	0.7594302
80	0x3f1f8aab	0.62320966
81	0x3f3ccb8b	0.7374808
82	0x3f0b555c	0.54427123
83	0x3f98bdbd	1.1932904
84	0x3f6c45e0	0.9229412
85	0x3f429ebd	0.76023465
86	0x3f1887a1	0.59581953
87	0x3f5d0b8a	0.8634573
88	0x3eb667ac	0.3562597
89	0x3f74475a	0.95421374
90	0x3f55c3da	0.8350197
91	0x3f3a1407	0.7268681
92	0x3f1bbf5d	0.6083887
93	0x3f1a5159	0.60280377
94	0x3f76b536	0.96370256
95	0x3f4a972d	0.79136926
96	0x3f627339	0.88457066
97	0x3edc3136	0.43006295
98	0x3f16b7f2	0.5887443
99	0x3eedc483	0.4643899
100	0x3f26dfb6	0.65185106
101	0x3f1924f1	0.59821993
102	0x3f27aaba	0.65494883
103	0x3f8ef441	1.116829
104	0x3f29ec29	0.66375977
105	0x3f324f27	0.69652027
106	0x3f13b067	0.57691044
107	0x3f13db77	0.5775675
108	0x3f81d981	1.0144502
109	0x3f759d77	0.959434
110	0x3eb8654e	0.3601479
111	0x3ef47028	0.47741818
112	0x3f655a8e	0.895913
113	0x3f624d51	0.88399225
114	0x3efbb929	0.49164703
115	0x3f897851	1.0739843
116	0x3f4a0ae3	0.7892286
117	0x3f49d2aa	0.7883707
118	0x3f1a51c9	0.60281044
119	0x3f11146a	0.56671774
120	0x3f26d545	0.65169173
121	0x3f366baf	0.7125806
122	0x3f28c113	0.6591961
123	0x3f401b29	0.75041443
124	0x3f0cb3d5	0.549619
125	0x3f27a5c8	0.6548734
126	0x3f63b722	0.88951313
127	0x3f2259b3	0.6341812
128	0x3f02e9d3	0.5113804
129	0x3f512b33	0.8170654
130	0x3f63b66d	0.88950235
131	0x3f83e8f1	1.0305463
132	0x3f022fff	0.50854486
133	0x3f1c36a4	0.61020875
134	0x3f91c003	1.1386722
135	0x3f4b58f0	0.7943258
136	0x3ee4b589	0.4466975
137	0x3f4247a1	0.7589055
138	0x3ea568d2	0.32306534
139	0x3f14c2d6	0.58109796
140	0x3f92d5a3	1.1471447
141	0x3f4d555f	0.8020839
142	0x3fafd4dd	1.3736836
143	0x3f4a8fff	0.7912597
144	0x3f46fac7	0.77726406
145	0x3f1b8ecd	0.6076477
146	0x3f1bac46	0.60809743
147	0x3f432986	0.76235235
148	0x3f523220	0.82107735
149	0x3fc118f9	1.5085746
150	0x3f500482	0.8125688
151	0x3f436a2f	0.763339
152	0x3f5eea4e	0.8707627
153	0x3f21eb09	0.6324926
154	0x3f0b1600	0.54330444
155	0x3f6ad2f9	0.9172817
156	0x3f243f54	0.6415913
157	0x3f429606	0.7601017
158	0x3eee466c	0.46538103
159	0x3fcf41ca	1.6191952
160	0x3f256c9b	0.64618844
161	0x3f131b37	0.574634
162	0x3f8a903b	1.0825266
163	0x3f6c378e	0.9227227
164	0x3f21585d	0.63025457
165	0x3f83063f	1.0236281
166	0x3f4e44f5	0.8057397
167	0x3f619129	0.8811212
168	0x3ed5811a	0.4170006
169	0x3f52274b	0.82091206
170	0x3f288f2a	0.6584345
171	0x3ef36221	0.47535804
172	0x3f598d4f	0.84981245
173	0x3f2cf487	0.6756062
174	0x3f7c3fc5	0.98534805
175	0x3f697eee	0.91209304
176	0x3f01b10f	0.50660795
177	0x3f7a0afc	0.9767301
178	0x3f37a671	0.71738344
179	0x3f02353f	0.508625
180	0x3f35b8d5	0.70985156
181	0x3f60feca	0.8788878
182	0x3f5ea837	0.86975425
183	0x3f2697f6	0.65075624
184	0x3f9a74fc	1.2066951
185	0x3ef46b14	0.47737944
186	0x3f0050b5	0.5012315
187	0x3f14ceb9	0.58127934
188	0x3f5543ce	0.83306587
189	0x3f39d3ad	0.72588617
190	0x3f7bff85	0.98436767
191	0x3f71e4ea	0.9448992
192	0x3f382be1	0.71941954
193	0x3f222bb3	0.6334793
194	0x3f3aab5f	0.7291774
195	0x3f1296ad	0.57261163
196	0x3f15e6d3	0.58555335
197	0x3f66e44c	0.90192103
198	0x3f3d7555	0.7400716
199	0x3ef0c2bf	0.4702358
200	0x3f4a9677	0.7913584
201	0x3f7d0a40	0.98843765
202	0x3f11ecbd	0.5700186
203	0x3f80c42e	1.0059869
204	0x3f8fbb37	1.1229008
205	0x3f3f0ab4	0.74625707
206	0x3f6bd336	0.9211916
207	0x3f1a760f	0.60336393
208	0x3f426996	0.7594236
209	0x3f804102	1.0019839
210	0x3f535fed	0.82568246
211	0x3ee95998	0.45576167
212	0x3f54c8d1	0.8311892
213	0x3f20d328	0.628222
214	0x3f2b6ab4	0.6695969
215	0x3f0d62e1	0.55229
216	0x3f84c669	1.037305
217	0x3ed705b1	0.4199653
218	0x3f916e00	1.1361694
219	0x3efc24ac	0.49246728
220	0x3ee0fd54	0.43943274
221	0x3f2ec333	0.682666
222	0x3f49ba10	0.78799534
223	0x3f4d3a8d	0.80167466
224	0x3f63f823	0.890505
225	0x3f4b017a	0.7929913
226	0x3ed88455	0.4228846
227	0x3f552085	0.83252746
228	0x3f0acc9c	0.5421846
229	0x3f26c85b	0.6514947
230	0x3f163fbf	0.5869102
231	0x3f7cf897	0.9881682
232	0x3f31a2b7	0.6938891
233	0x3eb38cd8	0.35068393
234	0x3ed74180	0.4204216
235	0x3ed9ac63	0.42514333
236	0x3f337e09	0.7011419
237	0x3e7d82ea	0.24756971
238	0x3f0b5074	0.54419637
239	0x3f47208a	0.77784026
240	0x3fd459e0	1.6589928
241	0x3f1392c3	0.57645816
242	0x3f555b31	0.8334227
243	0x3f9d25ac	1.2277122
244	0x3f4d5b74	0.8021767
245	0x3f17208b	0.5903403
246	0x3fadafa1	1.3569223
247	0x3f3b80b7	0.7324328
248	0x3f2ccb39	0.67497593
249	0x3f57090a	0.8399817
250	0x3f202e9c	0.6257112
251	0x3ee15cab	0.44016013
252	0x3ef3502b	0.475221
253	0x3f61691a	0.88051
254	0x3f7302bc	0.9492605
255	0x3eef8734	0.4678284

model.4.weight f4 [256, 256]
0	0xbc22edf4	-0.009944428
1	0x3e05e1cd	0.13074417
2	0x3ca7b07a	0.020469893
3	0xbd0c03a3	-0.034183156
4	0xbcf7ed85	-0.030264625
5	0x3e04f4b1	0.12983967
6	0x3cd5bec6	0.026091944
7	0x3da0d6f5	0.078535
8	0x3d6d5cde	0.057949893
9	0x3df2d476	0.1185693
10	0x3d67b5cc	0.05656986
11	0x3d8b330b	0.06796845
12	0xbd45751c	-0.048207387
13	0x3d54aa79	0.051920388
14	0x3d0b5ddb	0.034025054
15	0x3cf92559	0.030413317
16	0x3b873ac5	0.004126879
17	0xbb12da4b	-0.0022407945
18	0xbd8d6640	-0.06904268
19	0x3db1e27d	0.08685777
20	0xbc52f22c	-0.012875121
21	0x3cd630a6	0.026146244
22	0xbdaa9ca6	-0.083306596
23	0xbd8752b0	-0.06607568
24	0xbc15a3f2	-0.009133326
25	0xbd902c37	-0.07039683
26	0x3d891c7b	0.06694885
27	0xbdcd799c	-0.10032961
28	0xbd655d9b	-0.055997472
29	0xbd9854a9	-0.07438023
30	0xbd55cb12	-0.052195616
31	0x3d1d1577	0.03835055
32	0xbc149bc5	-0.0090703415
33	0x3d933029	0.0718692
34	0x3e0c6699	0.13711013
35	0x3dadc281	0.08484364
36	0x3ceea896	0.029133122
37	0x3e108072	0.14111498
38	0x3cb1b120	0.021690905
39	0xbd9f8c37	-0.07790416
40	0x3be30eb1	0.0069292416
41	0xbcf4d38a	-0.029886026
42	0x3df60d7e	0.12014292
43	0x3e0e2980	0.13883018
44	0x3da3e1cb	0.08002051
45	0x3da32f28	0.07967979
46	0x3c0aa651	0.0084625045
47	0x3d055bdb	0.032558303
48	0x3d94e9c3	0.07271149
49	0x3d03125d	0.031999934
50	0x3a9d760b	0.0012013329
51	0xbb28dfea	-0.0025768229
52	0x3df8f9a5	0.12156991
53	0xbbabf05e	-0.00524716
54	0x3d3727f6	0.044715844
55	0xbd72526d	-0.05916064
56	0x3d84e4cd	0.06488953
57	0x3d89c844	0.06727651
58	0x3d525f1a	0.051360227
59	0xbd483d02	-0.048886307
60	0x3dd3493a	0.10316701
61	0x3c7d1c8a	0.015448699
62	0xbba2db2b	-0.0049699745
63	0x3dbc62f3	0.091985606
64	0xbe1b3fe4	-0.15161091
65	0xbe09fcaf	-0.13475297
66	0x3df863af	0.12128388
67	0xbca81234	-0.020516492
68	0xbe0b24be	-0.13588235
69	0xbcab35eb	-0.020899734
70	0x3caa4f4d	0.020789767
71	0xbdc08f45	-0.094023265
72	0xbdd20ade	-0.10255979
73	0x3d54a5b2	0.051915832
74	0xbccb1ae9	-0.024793105
75	0xbd521266	-0.051287077
76	0xbc30fd6c	-0.010802608
77	0xbdfeb3da	-0.12436648
78	0x3d1f4ffe	0.038894646
79	0xbc876c07	-0.016531004
80	0xbd20dd6a	-0.039273657
81	0xbe64df2b	-0.22350757
82	0x3d28b700	0.041190147
83	0x3cbc8095	0.023010531
84	0xbc55c837	-0.013048223
85	0xbce72bac	-0.028219067
86	0x3e0583fe	0.13038632
87	0xb9ffac27	-0.00048765654
88	0xbda00630	-0.0781368
89	0xbe03cb2f	-0.12870477
90	0x3d7ca080	0.061676502
91	0xbc992a54	-0.018696941
92	0xbe23d79e	-0.1600022
93	0xbcb570a7	-0.022148443
94	0x3d817baa	0.06322415
95	0xbd9d2a55	-0.0767409
96	0x3d9e258a	0.07722004
97	0x3dc1b17d	0.09457681
98	0x3dc4f2cf	0.096166246
99	0xbe5ddbb1	-0.21665837
100	0x3d24f50b	0.040272754
101	0xbe09da69	-0.13462223
102	0xbd2f69f6	-0.04282566
103	0xbbda9f3d	-0.0066718147
104	0xbd8a5838	-0.06755108
105	0x3db67a21	0.08910013
106	0x3dbda892	0.09260668
107	0x3da4bf94	0.08044353
108	0xbd07d1ef	-0.033159193
109	0x3e014702	0.12624744
110	0xbd6f8e97	-0.058485594
111	0xbd341f99	-0.043975446
112	0xbd241322	-0.04005731
113	0xbdf37616	-0.118877575
114	0xbe1644ab	-0.14674632
115	0x3c0df67d	0.008664724
116	0x3d40b123	0.04704393
117	0xbe184f0a	-0.14873901
118	0xbc05f9fd	-0.008177278
119	0x3d009ca4	0.031399384
120	0xbd90ae77	-0.070645265
121	0x3d672aaf	0.05643719
122	0xbc6447cc	-0.013933133
123	0x3c730c35	0.014834453
124	0xbe20d29b	-0.1570534
125	0x3d2b0210	0.041750014
126	0x3d9f0d0a	0.07766159
127	0xbd7a30bc	-0.061081633
128	0x3dfb8c7e	0.12282656
129	0x3dd8a6bb	0.10578676
130	0x3d98635f	0.074408285
131	0xbc785d40	-0.015158951
132	0xbb2740fa	-0.0025520907
133	0x3dcd1859	0.100144096
134	0xbe0e9f03	-0.13927846
135	0x3d99e134	0.07513657
136	0xbc878f3f	-0.016547797
137	0x3d279278	0.040911168
138	0x3d56abe3	0.052410018
139	0x3dd412d0	0.10355151
140	0x3d56e02e	0.05245989
141	0x3e0d9388	0.1382581
142	0xbca1bedd	-0.019744331
143	0xbd88a180	-0.06671429
144	0xbe41cfe5	-0.18926962
145	0x3caea0fe	0.021317001
146	0xbe1e8133	-0.15478973
147	0x3d8d2424	0.06891659
148	0x3c47c682	0.012193324
149	0x3d830935	0.063982405
150	0xbd2e08f2	-0.042489
151	0x3cdd4acb	0.027013203
152	0x3d7fbfe3	0.062438857
153	0x3d915d1c	0.07097837
154	0xbe0bba4c	-0.13645285
155	0x3d39448c	0.045231387
156	0x3d7fe4f6	0.062474214
157	0x3d8bc7aa	0.06825192
158	0x3c976aaf	0.018483488
159	0x3d2380b4	0.039917663
160	0x3da82c5c	0.08211586
161	0x3dc5f4ed	0.096658565
162	0xbbe4d36a	-0.0069832103
163	0x3dfb250c	0.122629255
164	0xbe347a67	-0.17624818
165	0x3d18fb44	0.037349
166	0x3b0fc674	0.0021938356
167	0xbd31296c	-0.043252394
168	0xbe55dc67	-0.20884858
169	0x3d260ae3	0.040537726
170	0xbdefbdcd	-0.117061235
171	0x3da57af4	0.08080092
172	0x3dbce5f9	0.09223551
173	0xba885218	-0.0010400442
174	0xbdeff4f6	-0.117166445
175	0x3ca89b86	0.020581972
176	0xbcf13606	-0.029444706
177	0x3e199f67	0.15002213
178	0xbdaa1ee0	-0.0830667
179	0xbe2091f2	-0.15680674
180	0x3d1dd016	0.038528524
181	0xbcd034bf	-0.025415776
182	0x3d6a1c59	0.05715594
183	0x3d9cf33a	0.07663579
184	0x3cec14d5	0.028818527
185	0x3d33bff1	0.04388422
186	0x3d0b7906	0.034050964
187	0x3db63107	0.0889607
188	0x3d48a095	0.048981268
189	0xbbdaef3e	-0.006681352
190	0xbdf36f31	-0.118864425
191	0x3d2ab9c9	0.041681085
192	0xbd321388	-0.043475658
193	0x3cf73b77	0.030179722
194	0x3d219dba	0.03945706
195	0xbe013b51	-0.12620284
196	0xbd4cf3c5	-0.050037164
197	0xbd8d101f	-0.068878405
198	0x3be3cda4	0.0069520045
199	0x3d27edad	0.04099815
200	0xbb19d7b6	-0.002347452
201	0x3d2f128a	0.04274229
202	0xbdb90c04	-0.09035495
203	0x3da55d07	0.08074384
204	0x3d30aef7	0.04313561
205	0xbc853d5b	-0.016264608
206	0x3d82eab1	0.0639242
207	0x3da01e98	0.07818335
208	0x3dffa6f3	0.12483015
209	0xbd62b4fc	-0.05534838
210	0x3d55a5a3	0.052159917
211	0x3d4b383b	0.049614172
212	0x3cfe1062	0.031013671
213	0x3d936463	0.071968816
214	0x3d8cfa58	0.06883687
215	0x3acbbff5	0.0015544879
216	0xbc206244	-0.009789053
217	0xbdb484c0	-0.088143826
218	0x3d333886	0.043755077
219	0x3dc8a7f8	0.097976625
220	0x3cabdadd	0.020978386
221	0x3d556dfd	0.052106846
222	0x3c93a578	0.018023238
223	0x3cebbc96	0.028776448
224	0x3c71bc3f	0.014754354
225	0x3dfe3c07	0.12413793
226	0x3e10ac60	0.14128256
227	0xbd193e4f	-0.037412938
228	0x3d9f6dbe	0.077846035
229	0xbe06b204	-0.13153845
230	0x3d3ed500	0.04658985
231	0xbd1d59f0	-0.03841585
232	0x3dd782b6	0.10522978
233	0x3c17cbfa	0.00926494
234	0x3c5e2eb5	0.0135609405
235	0xbe2e49f5	-0.170204
236	0x3dba7f55	0.09106318
237	0x3cdc7ac3	0.026914006
238	0xbd4def47	-0.05027702
239	0x3df0c813	0.11756911
240	0xbd85ee82	-0.065396324
241	0x3deddaa5	0.11613969
242	0x3dcb3b5a	0.0992343
243	0x3d88ecfe	0.06685828
244	0x3d8faa90	0.07014954
245	0x3cf55b37	0.029950721
246	0x3db180f6	0.086671755
247	0x3d0e2c49	0.034710202
248	0x3cd636ae	0.02614912
249	0xbe08b731	-0.13351132
250	0xbe0fe7ce	-0.1405327
251	0x3de3ba58	0.111195266
252	0x3c699b99	0.014258289
253	0x3d02ab60	0.031901717
254	0x3dc3fac0	0.09569311
255	0x3d937058	0.07199162
